…
***************************
APPROACHES: 
****************************************

* augmented_deeper_cnn
	 A deeper CNN with batch normalization, dropout, stronger feature extraction, and training-only data augmentation.

****************************************
RESULTS:
****************************************
APPROACH	TRAINING_accuracy	TRAINING_f1	TESTING_accuracy	TESTING_f1
augmented_deeper_cnn	0.8902	0.8892	0.8640	0.8626

****************************************
MODEL ARCHITECTURES:
****************************************
* augmented_deeper_cnn
DeeperCNN(
  (features): Sequential(
    (0): Conv2d(3, 64, kernel_size=(3, 3), stride=(1, 1), padding=(1, 1))
    (1): BatchNorm2d(64, eps=1e-05, momentum=0.1, affine=True, track_running_stats=True)
    (2): LeakyReLU(negative_slope=0.1, inplace=True)
    (3): Conv2d(64, 64, kernel_size=(3, 3), stride=(1, 1), padding=(1, 1))
    (4): BatchNorm2d(64, eps=1e-05, momentum=0.1, affine=True, track_running_stats=True)
    (5): LeakyReLU(negative_slope=0.1, inplace=True)
    (6): MaxPool2d(kernel_size=2, stride=2, padding=0, dilation=1, ceil_mode=False)
    (7): Dropout(p=0.2, inplace=False)
    (8): Conv2d(64, 128, kernel_size=(3, 3), stride=(1, 1), padding=(1, 1))
    (9): BatchNorm2d(128, eps=1e-05, momentum=0.1, affine=True, track_running_stats=True)
    (10): LeakyReLU(negative_slope=0.1, inplace=True)
    (11): Conv2d(128, 128, kernel_size=(3, 3), stride=(1, 1), padding=(1, 1))
    (12): BatchNorm2d(128, eps=1e-05, momentum=0.1, affine=True, track_running_stats=True)
    (13): LeakyReLU(negative_slope=0.1, inplace=True)
    (14): MaxPool2d(kernel_size=2, stride=2, padding=0, dilation=1, ceil_mode=False)
    (15): Dropout(p=0.25, inplace=False)
    (16): Conv2d(128, 256, kernel_size=(3, 3), stride=(1, 1), padding=(1, 1))
    (17): BatchNorm2d(256, eps=1e-05, momentum=0.1, affine=True, track_running_stats=True)
    (18): LeakyReLU(negative_slope=0.1, inplace=True)
    (19): MaxPool2d(kernel_size=2, stride=2, padding=0, dilation=1, ceil_mode=False)
    (20): Dropout(p=0.3, inplace=False)
  )
  (classifier): Sequential(
    (0): Flatten(start_dim=1, end_dim=-1)
    (1): Linear(in_features=4096, out_features=512, bias=True)
    (2): LeakyReLU(negative_slope=0.1, inplace=True)
    (3): Dropout(p=0.4, inplace=False)
    (4): Linear(in_features=512, out_features=256, bias=True)
    (5): LeakyReLU(negative_slope=0.1, inplace=True)
    (6): Dropout(p=0.3, inplace=False)
    (7): Linear(in_features=256, out_features=10, bias=True)
  )
)

